Penguins_DL/models/penguin_classifier.pt (torch, 2863 bytes, 6 tensors)

fc1.weight f4 [10, 4]
00000000: 0054 75bb 5e54 893e 16b3 d2be 8066 bcbe
00000010: e275 37be 5483 b7bd 088c f23d 6f9d 043f
00000020: 70bf 35bd 4c7b 073e acbb 1abe 7048 c9bd
00000030: b891 f4be 528b a9be e80e 53be 00bb 973c
00000040: a32a 623e f336 123f 003e cdbe 2976 3fbe
00000050: 18b1 a13e 1fb7 7d3e 8dd9 4ebe 473d cc3e
00000060: 400d a5bd 10b5 583d 4acd e73e ce7b edbe
00000070: cd87 b5be 6fc3 21be c7fa 6ebe 2f67 c83e
00000080: 1aef a5be c0b0 6bbe 1ada b2be 76c2 efbe
00000090: 4d6e f2be 69df 4c3f 0c86 9a3e e725 1e3e
-0.00374341 0.2682218 -0.41152257 -0.3679695 -0.17916062 -0.08960596 0.11843115 0.51802725
-0.044372022 0.13230628 -0.15110654 -0.098282695 -0.47767425 -0.33114105 -0.20611155 0.018521786
0.22086577 0.57115096 -0.40086365 -0.18697418 0.31580424 0.24776886 -0.20200177 0.398905
-0.08059168 0.05290705 0.4527381 -0.46383518 -0.3545517 -0.15797208 -0.23337851 0.39141223
-0.32408983 -0.23016644 -0.34932023 -0.4682805 -0.47349778 0.80028397 0.30180395 0.15444146

fc1.bias f4 [10]
00000000: 406a d73c 666c 54be c03e ad3d 9e06 efbe
00000010: fc32 b6be e37f e8be 2685 a13e 79bb 833e
00000020: c811 63be b342 7a3e
0.026295781 -0.20744476 0.08459234 -0.46684736 -0.35585773 -0.4541007 0.31546897 0.25728968
-0.22174752 0.24439506

fc2.weight f4 [10, 10]
00000000: cc19 4f3e 6ef5 a03e 6d84 003e 49fb 2e3d
00000010: 721d 593e 12aa 3ebe 9a5d 713d aa0e 7bbe
00000020: e96e 60be 5647 27be c184 123e 1cdd a53d
00000030: 5fd0 3fbe aca7 c33d e15f 3f3f 00d4 3fbc
00000040: 4cd2 453c 6e66 163d 7de3 483e 11bd 373f
00000050: 8b8a 79be ed76 c4bd d986 fe3d 3726 863e
00000060: 3d74 e13e aabd a73e 80e3 803d e462 78be
00000070: 5f4f ee3c c2d5 24bf 33e4 96be fdb7 df3e
00000080: b437 763e 2582 a1be 2fe1 26bf 1ef2 09bd
00000090: a426 55bd 3a12 c7bd 450d f93d b359 e5be
000000a0: cc6a ed3d cac1 233e c2cf 673e 6228 f23d
000000b0: 253f a0be 2a0f 52be d3af 213e ff8c 873d
000000c0: ca9a 7cbe d475 3abe bf50 983e 11ff ad3e
000000d0: 4531 0dbe efff a2bd 587b 80bf 7252 243d
000000e0: 7cda 73be 8888 57be d4bc 8ebc 253e 5bbe
000000f0: eb9c 04be 5925 403e 320e 45be 3ae9 923e
00000100: 73e9 5d3e e788 88be a22f a1bd a2c8 693c
00000110: 2cfb 3c3d 2c9a 993d 6b26 fe3d 742c 9b3c
00000120: efff 1dbe 0c3a 193e 874f 9bbe bbed 3fbe
00000130: 4b1f a2bd 57bc 1dbe 6c90 e2bd 2db4 84be
00000140: fcc2 89bd 85f8 293e b2f4 52be dbf1 84bc
00000150: aac4 d9bd d511 a0bd 5bfe 0f3c 9bc4 933b
00000160: b411 833d 524d ee3e 095e 993e 5da4 4d3e
00000170: deb7 993e 1b5a bbbc 2c72 91be ae83 19be
00000180: 257d 5c3e 4d58 06bb c2f3 20be 1c25 78be
0.20224684 0.31437248 0.12550516 0.042720113 0.21202639 -0.18619564 0.058927156 -0.24517313
-0.21917309 -0.16335806 0.14308454 0.08098814 -0.18731831 0.09553465 0.74755675 -0.01170826
0.012074064 0.03671878 0.1961803 0.7177287 -0.24369256 -0.09592996 0.12428064 0.2620103
0.44033995 0.3276189 0.06293392 -0.24256474 0.029090581 -0.6438867 -0.29470977 0.4369506
0.24044687 -0.31544605 -0.6518735 -0.033678167 -0.052038804 -0.09720273 0.12160734 -0.44794998
0.115926355 0.15991893 0.22637847 0.11824109 -0.31298175 -0.20513597 0.15789728 0.0661869
-0.24668422 -0.1820901 0.29749104 0.33983663 -0.13788326 -0.07958972 -1.0037642 0.04011769
-0.23813814 -0.21048176 -0.017424025 -0.21410425 -0.12950484 0.18764247 -0.19243696 0.28693563
0.21671085 -0.26666948 -0.07870413 0.014269026 0.046137974 0.07500109 0.124096714 0.018942095
-0.15429662 0.1496355 -0.30334112 -0.1874303 -0.07916125 -0.15403877 -0.110627025 -0.25918713
-0.067266434 0.16598709 -0.20601156 -0.016228607 -0.10633214 -0.07815901 0.00878867 0.004509521
0.06399861 0.46543366 0.29954556 0.20082231 0.30023092 -0.022870114 -0.2840742 -0.14991638
0.21532114 -0.0020499409 -0.15717986 -0.24232906

fc2.bias f4 [10]
00000000: c385 97be c630 bbbd e8b1 76be 06b3 ec3d
00000010: a311 2f3e 821a a5be cbfd 493e da63 7dbe
00000020: 9241 103d 8d4c 03be
-0.2959424 -0.09140162 -0.24091303 0.115575835 0.17096572 -0.32246786 0.1972572 -0.24745122
0.035218783 -0.1282217

fc3.weight f4 [3, 10]
00000000: 137d 79bd 0d51 7ebd e749 91be 4ccc 8bbe
00000010: d9ae 4abd 5601 863b 1f1a 13be a1f6 f33d
00000020: 2aba 91be 08d4 aebc b662 8e3e 1275 d3be
00000030: e2d3 8b3e b520 3b3f bf1d 92be ee0d 273f
00000040: 8577 15bd e28d 10be 7af1 94bb 6bd6 82be
00000050: 1efd 0a3d d989 45be d426 383f 4221 9fbe
00000060: 8e98 1b3e bbb0 a9be 5dbd 9bbd 7933 88bd
00000070: 7aea 8ebf 5e75 2f3e
-0.060910296 -0.062089015 -0.28376696 -0.27304304 -0.049483154 0.0040895147 -0.14365433 0.11912275
-0.28462344 -0.021341339 0.27809685 -0.41300255 0.2731009 0.7309678 -0.2853832 0.6525563
-0.036490936 -0.14116624 -0.004545388 -0.25554213 0.033932798 -0.19290866 0.71934247 -0.3108006
0.15194914 -0.33142647 -0.076044776 -0.06650443 -1.1165307 0.17134616

fc3.bias f4 [3]
00000000: 498d 803e c8f6 d53d b39c 77be
0.25107792 0.104474604 -0.2418087
